nohup: ignoring input
----------------------------------------------------------------
        Layer (type)               Output Shape         Param #
================================================================
            Conv2d-1          [-1, 6, 224, 224]             168
         MaxPool2d-2          [-1, 6, 112, 112]               0
            Conv2d-3         [-1, 16, 112, 112]             880
         MaxPool2d-4           [-1, 16, 56, 56]               0
            Linear-5                [-1, 52550]   2,636,801,350
              ReLU-6                [-1, 52550]               0
            Linear-7               [-1, 105100]   5,523,110,100
================================================================
Total params: 8,159,912,498
Trainable params: 8,159,912,498
Non-trainable params: 0
----------------------------------------------------------------
Input size (MB): 0.57
Forward/backward pass size (MB): 6.39
Params size (MB): 31127.60
Estimated Total Size (MB): 31134.56
----------------------------------------------------------------
None


----------------------------------------------------------------
        Layer (type)               Output Shape         Param #
================================================================
            Conv2d-1          [-1, 4, 224, 224]             112
              ReLU-2          [-1, 4, 224, 224]               0
         MaxPool2d-3            [-1, 4, 56, 56]               0
            Conv2d-4            [-1, 5, 56, 56]             185
              ReLU-5            [-1, 5, 56, 56]               0
         MaxPool2d-6            [-1, 5, 14, 14]               0
            Linear-7                 [-1, 1484]       1,455,804
              ReLU-8                 [-1, 1484]               0
            Linear-9                 [-1, 2969]       4,408,965
================================================================
Total params: 5,865,066
Trainable params: 5,865,066
Non-trainable params: 0
----------------------------------------------------------------
Input size (MB): 0.57
Forward/backward pass size (MB): 3.45
Params size (MB): 22.37
Estimated Total Size (MB): 26.40
----------------------------------------------------------------
None


----------------------------------------------------------------
        Layer (type)               Output Shape         Param #
================================================================
            Conv2d-1           [-1, 64, 55, 55]          23,296
              ReLU-2           [-1, 64, 55, 55]               0
         MaxPool2d-3           [-1, 64, 27, 27]               0
            Conv2d-4          [-1, 192, 27, 27]         307,392
              ReLU-5          [-1, 192, 27, 27]               0
         MaxPool2d-6          [-1, 192, 13, 13]               0
            Conv2d-7          [-1, 384, 13, 13]         663,936
              ReLU-8          [-1, 384, 13, 13]               0
            Conv2d-9          [-1, 256, 13, 13]         884,992
             ReLU-10          [-1, 256, 13, 13]               0
           Conv2d-11          [-1, 256, 13, 13]         590,080
             ReLU-12          [-1, 256, 13, 13]               0
AdaptiveAvgPool2d-13            [-1, 256, 6, 6]               0
          Dropout-14                 [-1, 9216]               0
           Linear-15                 [-1, 1484]      13,678,028
      BatchNorm1d-16                 [-1, 1484]           2,968
             ReLU-17                 [-1, 1484]               0
          Dropout-18                 [-1, 1484]               0
           Linear-19                 [-1, 2969]       4,408,965
================================================================
Total params: 20,559,657
Trainable params: 20,559,657
Non-trainable params: 0
----------------------------------------------------------------
Input size (MB): 0.57
Forward/backward pass size (MB): 8.21
Params size (MB): 78.43
Estimated Total Size (MB): 87.22
----------------------------------------------------------------
None


